python/model.tflite (tflite, 8920 bytes, 1 tensors)

dense/weights_quant/FakeQuantWithMinMaxVars/transpose u1 [10, 784] scale=0.008342777 zero_point=146
0	0x76	-0.23359777
1	0x9b	0.075085
2	0xab	0.20856944
3	0x9b	0.075085
4	0x75	-0.24194054
5	0x56	-0.50056666
6	0x73	-0.2586261
7	0x7f	-0.15851277
8	0x9c	0.08342777
9	0x95	0.025028333
10	0x7c	-0.1835411
11	0xb1	0.2586261
12	0x82	-0.13348444
13	0x61	-0.4087961
14	0x64	-0.38376775
15	0x63	-0.39211053
16	0xb0	0.25028333
17	0x9e	0.10011333
18	0x99	0.058399443
19	0xa3	0.14182721
20	0x9d	0.09177055
21	0x6a	-0.3337111
22	0x4b	-0.5923372
23	0x71	-0.27531165
24	0xa5	0.15851277
25	0x9d	0.09177055
26	0x81	-0.14182721
27	0xa5	0.15851277
28	0xa1	0.12514167
29	0x9a	0.06674222
30	0xaa	0.20022666
31	0x96	0.03337111
32	0x7c	-0.1835411
33	0x6c	-0.31702554
34	0x64	-0.38376775
35	0x8b	-0.058399443
36	0x91	-0.008342777
37	0x85	-0.108456105
38	0x86	-0.10011333
39	0x93	0.008342777
40	0x81	-0.14182721
41	0x93	0.008342777
42	0x9a	0.06674222
43	0xa4	0.15017
44	0x93	0.008342777
45	0x9e	0.10011333
46	0x97	0.041713886
47	0x8f	-0.025028333
48	0xa8	0.1835411
49	0x8a	-0.06674222
50	0x80	-0.15017
51	0x7d	-0.17519833
52	0x8e	-0.03337111
53	0xa8	0.1835411
54	0x86	-0.10011333
55	0xa7	0.17519833
56	0x9b	0.075085
57	0x75	-0.24194054
58	0x8b	-0.058399443
59	0x9c	0.08342777
60	0x85	-0.108456105
61	0x83	-0.12514167
62	0x87	-0.09177055
63	0x99	0.058399443
64	0x9b	0.075085
65	0x88	-0.08342777
66	0x91	-0.008342777
67	0x82	-0.13348444
68	0x8e	-0.03337111
69	0xa1	0.12514167
70	0x93	0.008342777
71	0xa7	0.17519833
72	0x8d	-0.041713886
73	0x8f	-0.025028333
74	0x89	-0.075085
75	0x8e	-0.03337111
76	0xa6	0.16685554
77	0xa8	0.1835411
78	0x98	0.050056666
79	0x9d	0.09177055
80	0xa8	0.1835411
81	0x81	-0.14182721
82	0x8e	-0.03337111
83	0x96	0.03337111
84	0x73	-0.2586261
85	0x85	-0.108456105
86	0x9f	0.108456105
87	0x91	-0.008342777
88	0x96	0.03337111
89	0x99	0.058399443
90	0xa2	0.13348444
91	0x96	0.03337111
92	0x8d	-0.041713886
93	0x9b	0.075085
94	0x8d	-0.041713886
95	0x7e	-0.16685554
96	0x91	-0.008342777
97	0x8a	-0.06674222
98	0x85	-0.108456105
99	0x98	0.050056666
100	0x97	0.041713886
101	0x89	-0.075085
102	0x9c	0.08342777
103	0x94	0.016685555
104	0x99	0.058399443
105	0xa9	0.19188388
106	0x98	0.050056666
107	0xaa	0.20022666
108	0xb1	0.2586261
109	0x8a	-0.06674222
110	0x7f	-0.15851277
111	0x78	-0.21691221
112	0x72	-0.26696888
113	0x85	-0.108456105
114	0x88	-0.08342777
115	0x97	0.041713886
116	0x8f	-0.025028333
117	0x9f	0.108456105
118	0x96	0.03337111
119	0x7c	-0.1835411
120	0x8a	-0.06674222
121	0x9b	0.075085
122	0x8a	-0.06674222
123	0x7f	-0.15851277
124	0x8b	-0.058399443
125	0x90	-0.016685555
126	0x80	-0.15017
127	0x8e	-0.03337111
128	0x7a	-0.20022666
129	0x84	-0.116798885
130	0x92	0.0
131	0x9f	0.108456105
132	0x9a	0.06674222
133	0x95	0.025028333
134	0xab	0.20856944
135	0x9f	0.108456105
136	0xaa	0.20022666
137	0x8d	-0.041713886
138	0x5e	-0.43382442
139	0x79	-0.20856944
140	0x94	0.016685555
141	0x6c	-0.31702554
142	0x8a	-0.06674222
143	0x91	-0.008342777
144	0xb3	0.27531165
145	0x97	0.041713886
146	0x94	0.016685555
147	0x80	-0.15017
148	0x8e	-0.03337111
149	0x90	-0.016685555
150	0x89	-0.075085
151	0x7a	-0.20022666
152	0x80	-0.15017
153	0x89	-0.075085
154	0x85	-0.108456105
155	0x88	-0.08342777
156	0x86	-0.10011333
157	0x98	0.050056666
158	0x8e	-0.03337111
159	0x93	0.008342777
160	0x89	-0.075085
161	0x95	0.025028333
162	0x9a	0.06674222
163	0xa1	0.12514167
164	0x9b	0.075085
165	0x91	-0.008342777
166	0x64	-0.38376775
167	0x84	-0.116798885
168	0x94	0.016685555
169	0xa2	0.13348444
170	0xa9	0.19188388
171	0x8c	-0.050056666
172	0xa0	0.116798885
173	0xa8	0.1835411
174	0xa5	0.15851277
175	0x87	-0.09177055
176	0x99	0.058399443
177	0x8e	-0.03337111
178	0x8c	-0.050056666
179	0x91	-0.008342777
180	0x82	-0.13348444
181	0x93	0.008342777
182	0x89	-0.075085
183	0x96	0.03337111
184	0x8f	-0.025028333
185	0x91	-0.008342777
186	0x9e	0.10011333
187	0xa5	0.15851277
188	0x90	-0.016685555
189	0x88	-0.08342777
190	0x9f	0.108456105
191	0x9b	0.075085
192	0x94	0.016685555
193	0x94	0.016685555
194	0x84	-0.116798885
195	0x75	-0.24194054
196	0xb4	0.28365442
197	0xa3	0.14182721
198	0x9f	0.108456105
199	0xa6	0.16685554
200	0xaa	0.20022666
201	0xa1	0.12514167
202	0x96	0.03337111
203	0x93	0.008342777
204	0xa0	0.116798885
205	0x91	-0.008342777
206	0x93	0.008342777
207	0x96	0.03337111
208	0x95	0.025028333
209	0x8d	-0.041713886
210	0x86	-0.10011333
211	0x8e	-0.03337111
212	0x8b	-0.058399443
213	0x88	-0.08342777
214	0x92	0.0
215	0xb1	0.2586261
216	0x92	0.0
217	0x89	-0.075085
218	0xa0	0.116798885
219	0x94	0.016685555
220	0x97	0.041713886
221	0x9f	0.108456105
222	0x86	-0.10011333
223	0x88	-0.08342777
224	0xaa	0.20022666
225	0xa1	0.12514167
226	0xaa	0.20022666
227	0x9b	0.075085
228	0xa8	0.1835411
229	0xab	0.20856944
230	0xa2	0.13348444
231	0xaa	0.20022666
232	0xac	0.21691221
233	0x9e	0.10011333
234	0x9b	0.075085
235	0x88	-0.08342777
236	0x8c	-0.050056666
237	0x94	0.016685555
238	0x8d	-0.041713886
239	0x94	0.016685555
240	0x97	0.041713886
241	0x8c	-0.050056666
242	0x9e	0.10011333
243	0xa1	0.12514167
244	0x99	0.058399443
245	0x97	0.041713886
246	0xaa	0.20022666
247	0x94	0.016685555
248	0xa3	0.14182721
249	0x7d	-0.17519833
250	0x81	-0.14182721
251	0x8d	-0.041713886
252	0x93	0.008342777
253	0x8c	-0.050056666
254	0xa9	0.19188388
255	0xa4	0.15017
